app/src/main/Assets/asl_gesture_landmark.tflite (tflite, 21152 bytes, 6 tensors)

arith.constant f4 [128]
000000 2d c5 c0 3d 72 0d 78 bc 00 00 00 00 18 fa 05 bc
       0.09412608 -0.015139924 0.0 -0.008177303
000010 6e c0 4f bd fa 05 7a bc ef 37 ef 3c 06 6e 83 bc
       -0.050720625 -0.015260214 0.029201476 -0.016043674
000020 87 2b e1 bc 84 c3 db bb fa b1 aa bd 00 00 00 00
       -0.027486576 -0.006706657 -0.083347276 0.0
000030 a5 54 aa bd 28 b1 7c be 7a f7 9a 3b fb 78 1d 3e
       -0.08316926 -0.24676955 0.0047292085 0.15378182
000040 00 00 00 00 45 ee 38 3d 00 00 00 00 9b ee 8d be
       0.0 0.045149107 0.0 -0.27721104
000050 b8 07 c7 3d 00 00 00 00 6b 50 95 bd 00 00 00 00
       0.09718269 0.0 -0.07290729 0.0
000060 09 1d 52 be c7 e2 f2 bd 00 00 00 00 79 23 1f bd
       -0.20518889 -0.118596606 0.0 -0.03885219
000070 cd 3e c3 3c d2 3c 6d 3d 4a 05 9f 3d 98 b2 86 3e
       0.023833657 0.05791933 0.07764681 0.2630813
000080 39 c9 9d 3c a1 41 62 bb 65 8d f8 bc 42 6e c5 bd
       0.01926099 -0.003452398 -0.03034086 -0.09640171
000090 ca db 99 bd d7 16 d1 bd 00 00 00 00 19 90 d5 bc
       -0.075126246 -0.102094345 0.0 -0.026069688
0000a0 1d 99 c2 3d 69 ea 05 be 78 d8 5b 3b ab 65 95 bd
       0.0950186 -0.13077702 0.0033545773 -0.07294782
0000b0 75 cd 9c 3d 00 00 00 00 02 8a 12 be 1d e5 f4 bd
       0.07656375 0.0 -0.14310458 -0.119577624
0000c0 3e 6e 36 be fd c5 ae bd e8 05 ed bd 35 21 4d be
       -0.17815492 -0.08533857 -0.11573392 -0.20032199
0000d0 19 2f 54 bb f2 99 83 bb 00 00 00 00 00 00 00 00
       -0.0032376705 -0.0040161544 0.0 0.0
0000e0 07 e5 55 bb d1 a7 33 bd 6c 5f 66 3e f7 5d f8 bb
       -0.0032637732 -0.043861214 0.22497338 -0.007579561
0000f0 b4 8c 16 be 10 96 d9 bd c6 6a c5 bb 67 e9 47 bd
       -0.14702111 -0.10624325 -0.0060246913 -0.048806574
000100 00 00 00 00 3f f9 34 bc bf 74 70 bd cb c6 84 bc
       0.0 -0.011045753 -0.058705088 -0.016208073
000110 d2 e4 57 bd f4 94 ef bb 34 ea 65 be 8e 3c 5d 3d
       -0.052708454 -0.007311458 -0.22452623 0.054012828
000120 9a 2b 9b bd 03 19 ca bc eb ea 99 bd e6 d5 ac bc
       -0.07576676 -0.02467013 -0.0751551 -0.021098088
000130 76 65 b4 bd e7 e2 97 3a 66 76 8b bd 84 63 b7 3e
       -0.08808415 0.0011588008 -0.06809692 0.35818112
000140 52 87 ad bd 15 a0 18 be 5f f0 20 bd 18 ab 91 bd
       -0.08473076 -0.14904816 -0.039291736 -0.07112712
000150 98 d9 9d 3d 0e 9d 19 bd ce 75 2f bc 26 01 44 be
       0.07707518 -0.037503295 -0.010709239 -0.19141063
000160 0f 95 cc 3d f8 21 5d 3e 8d db 73 be 47 90 ee bb
       0.09989368 0.2159499 -0.2381422 -0.007280383
000170 cd 37 03 bd fc e9 f3 bd 2a 56 e6 3d 26 b6 de bd
       -0.032035638 -0.11909863 0.11246903 -0.10874586
000180 0c 96 20 bd 8f 3a 14 bd 9d 52 22 3c cf e0 b6 3b
       -0.039205596 -0.03618866 0.009907392 0.0055809985
000190 a5 28 ed 3d b2 14 21 bd 00 00 00 00 fe ea dc bd
       0.11580018 -0.039326377 0.0 -0.10787009
0001a0 00 00 00 00 60 16 ee 3d 6a b0 27 be cf 1c 64 bc
       0.0 0.116253614 -0.1637589 -0.013922884
0001b0 b6 af 1b be 81 10 75 3c 73 eb 00 3e 50 41 c4 bb
       -0.15203747 0.014957548 0.12589817 -0.005989231
0001c0 b6 b7 9c bc 96 a7 c4 bb 5a ed ad 3d f6 e3 12 be
       -0.019130569 -0.006001423 0.08492537 -0.14344773
0001d0 ad 7f 4b be 00 00 00 00 00 00 00 00 5e 6a 86 bc
       -0.19872923 0.0 0.0 -0.016408142
0001e0 fe 99 3d bd d6 23 d7 bb 13 8c 0a 3e 51 a2 cb bd
       -0.046289437 -0.0065655513 0.13529997 -0.09943069
0001f0 bd 0d 40 bc 55 71 ef bb 34 c4 56 bc 41 5c ea bc
       -0.011722025 -0.0073072114 -0.013108302 -0.028608443

arith.constant1 f4 [64]
000000 79 33 03 3f d4 e6 04 3f 27 fd 75 3e c5 b0 51 3f
       0.51250416 0.51914716 0.24022351 0.81910354
000010 40 0a b9 3e 13 bd bc 3e 09 21 bf 3c 9e d5 dd 3d
       0.36140633 0.36863002 0.023331182 0.1083176
000020 bf 1d c2 3e fa ad d5 3c 53 bb 43 be ca d8 82 3e
       0.3791332 0.026083935 -0.19114427 0.25556022
000030 b3 14 a7 3e f8 49 46 3d 35 64 41 3e 2e e3 c5 3d
       0.3263298 0.048410386 0.18885882 0.09662472
000040 7d e4 10 3f 46 cf 13 3e 13 b4 a7 3e dc bb 84 3e
       0.56598645 0.14434537 0.32754573 0.25924575
000050 10 4b 90 3c 9d 64 51 3e da 75 a1 3e 9c 5e 6f be
       0.017613918 0.20448537 0.31535226 -0.23375934
000060 48 fb c1 3e 41 bd 84 3d e3 99 a6 3e 19 99 a6 3e
       0.37887025 0.0648141 0.3253928 0.3253868
000070 b6 a5 f7 3c d1 31 ef bd e8 c4 14 be 34 2b 42 3b
       0.030230384 -0.116794236 -0.14528239 0.0029627802
000080 5f ff 82 3e 0c ee 93 3e 7d 2a 5f 3e f4 06 f4 3e
       0.25585458 0.28892553 0.21793552 0.47661555
000090 8a 2e da bb 60 53 e2 3e 50 89 2d bb 26 4b 13 3d
       -0.00665838 0.44204235 -0.002647955 0.03596034
0000a0 e4 b3 36 3f 7a d1 a0 3e 85 00 e2 3e db 77 d0 bd
       0.7136824 0.31409818 0.4414102 -0.101791106
0000b0 be c2 01 3f 16 14 62 3e ec 84 9e 3e 29 51 29 bd
       0.5068778 0.22077975 0.30960786 -0.041337166
0000c0 08 9a 95 3e c1 02 c1 3d dd 9e ea 3d da 0d 8a 3e
       0.2921908 0.094243534 0.11456082 0.26963693
0000d0 0e d7 71 bc bf 53 b3 3e 45 4c b0 bd aa b5 75 bd
       -0.014760746 0.3502483 -0.08608297 -0.0599877
0000e0 73 7b 8c bd 10 7a cf 3e 63 0d c5 3e e9 bf 84 3e
       -0.068594836 0.40522814 0.38486776 0.25927666
0000f0 8e d4 ec 3e 52 94 22 3b 57 7c 0e 3f f9 fd bb 3e
       0.46255916 0.0024807644 0.5565848 0.36717203

arith.constant2 f4 [29]
000000 22 e5 ce 3e fe ef 75 3f 46 e4 5b bd 6f 1e ab be
       0.4040919 0.96069324 -0.053684495 -0.33421656
000010 e7 9b 0b 3f 27 09 3f bf 3a 46 27 bf c9 ee 66 be
       0.54534763 -0.7462334 -0.6534153 -0.22552027
000020 28 d2 52 bc 6d c5 bb 3e be 6e ac bd ed ce d0 be
       -0.012867488 0.3667406 -0.0841956 -0.40782872
000030 aa 20 aa be bd 0e 65 3c e0 52 58 3f ae 65 2d bf
       -0.33228046 0.013980565 0.8450146 -0.67733276
000040 83 1e 8e 3e b5 e4 0b be 21 7a 17 3f d7 7c b6 be
       0.27757654 -0.13661464 0.5917073 -0.3564212
000050 91 01 74 3e b0 ec e9 bc 65 a9 a2 bf c8 43 eb 3d
       0.23828723 -0.028555244 -1.2707945 0.114875376
000060 bf f4 33 be e4 96 63 be f3 94 ad be 28 c3 5b bf
       -0.17573832 -0.22225529 -0.33902702 -0.8584466
000070 66 94 af 3f
       1.3717163

tfl.pseudo_qconst i1 [29, 64]
000000 05 ec 93 05 0f 05 06 11 14 f9 33 03 0b 05 0c 81
       5 -20 -109 5 15 5 6 17 20 -7 51 3 11 5 12 -127
000010 09 10 09 0f 05 ba 09 14 14 15 0e 04 0e f2 ee a3
       9 16 9 15 5 -70 9 20 20 21 14 4 14 -14 -18 -93
000020 b6 01 06 02 0b 0a 06 e3 cd c0 f8 d4 18 02 c7 f6
       -74 1 6 2 11 10 6 -29 -51 -64 -8 -44 24 2 -57 -10
000030 b2 ba 95 0d 04 05 ab ef cd 09 02 e0 96 c1 0d e1
       -78 -70 -107 13 4 5 -85 -17 -51 9 2 -32 -106 -63 13 -31
000040 dd 03 0b 05 a8 04 f3 d6 e2 d4 0d b7 01 b4 04 08
       -35 3 11 5 -88 4 -13 -42 -30 -44 13 -73 1 -76 4 8
000050 d6 d3 b3 d0 d5 05 ff 0b 03 cc ad a1 c0 0b ee 06
       -42 -45 -77 -48 -43 5 -1 11 3 -52 -83 -95 -64 11 -18 6
000060 f7 b7 dd 0d b1 06 81 05 0f 09 09 f7 8c 05 1c e4
       -9 -73 -35 13 -79 6 -127 5 15 9 9 -9 -116 5 28 -28
000070 d4 c4 06 cf ed c7 ff 09 a9 d5 fc 08 0b ba cd 0e
       -44 -60 6 -49 -19 -57 -1 9 -87 -43 -4 8 11 -70 -51 14
000080 04 db c8 dd 12 e3 e5 9b 0a 16 11 00 ee dd 15 a2
       4 -37 -56 -35 18 -29 -27 -101 10 22 17 0 -18 -35 21 -94
000090 f2 f6 f9 81 0f fd 0b 05 f8 e9 9b cf 0f f0 1a e9
       -14 -10 -7 -127 15 -3 11 5 -8 -23 -101 -49 15 -16 26 -23
0000a0 b9 0a be 18 2f 0d 13 cd 11 0e 0b fd 0a 13 16 e7
       -71 10 -66 24 47 13 19 -51 17 14 11 -3 10 19 22 -25
0000b0 da c3 b5 f1 cb c9 05 0c 0b 0c f4 15 e0 bb 96 17
       -38 -61 -75 -15 -53 -55 5 12 11 12 -12 21 -32 -69 -106 23
0000c0 8d 0a fb e8 10 03 d0 05 07 10 ff ca 01 f8 0b f1
       -115 10 -5 -24 16 3 -48 5 7 16 -1 -54 1 -8 11 -15
0000d0 10 b4 ba fa 05 e1 08 f5 f9 81 07 05 05 f9 fd e6
       16 -76 -70 -6 5 -31 8 -11 -7 -127 7 5 5 -7 -3 -26
0000e0 dd 05 a8 ed 0c 04 14 10 0b 03 08 1f a9 0e 15 ab
       -35 5 -88 -19 12 4 20 16 11 3 8 31 -87 14 21 -85
0000f0 03 f0 cf a7 04 0a 00 07 09 d2 e6 0b e9 11 00 12
       3 -16 -49 -89 4 10 0 7 9 -46 -26 11 -23 17 0 18

tfl.pseudo_qconst1 i1 [64, 128]
000000 1e f7 01 04 fe 03 0b 07 f8 ff 0d fe 0d 14 e3 09
       30 -9 1 4 -2 3 11 7 -8 -1 13 -2 13 20 -29 9
000010 fe e6 00 fe ff fb 1d fd fc 11 f8 f5 19 e5 f1 df
       -2 -26 0 -2 -1 -5 29 -3 -4 17 -8 -11 25 -27 -15 -33
000020 b8 03 fa 0b 7f 02 08 fb 02 00 ef fb 22 00 0d 00
       -72 3 -6 11 127 2 8 -5 2 0 -17 -5 34 0 13 0
000030 12 e0 f5 0a 16 d1 03 f8 00 d9 13 07 07 06 06 09
       18 -32 -11 10 22 -47 3 -8 0 -39 19 7 7 6 6 9
000040 f9 fb 01 01 20 02 13 f7 dc 03 ef fc e6 01 00 0a
       -7 -5 1 1 32 2 19 -9 -36 3 -17 -4 -26 1 0 10
000050 01 fb 19 00 db a9 09 03 e0 03 21 f8 fc b0 07 1c
       1 -5 25 0 -37 -87 9 3 -32 3 33 -8 -4 -80 7 28
000060 07 f4 d6 fb f7 eb fe 0b fa 15 d2 07 0d 1c e0 ff
       7 -12 -42 -5 -9 -21 -2 11 -6 21 -46 7 13 28 -32 -1
000070 1a fe 13 00 fb 06 05 05 06 fb 0b f9 ec 1c 03 2b
       26 -2 19 0 -5 6 5 5 6 -5 11 -7 -20 28 3 43
000080 04 06 f9 00 03 fc e3 f9 1d 08 04 f9 ed 25 ad 1b
       4 6 -7 0 3 -4 -29 -7 29 8 4 -7 -19 37 -83 27
000090 07 eb fd 05 10 0a f1 fa 13 2e fc 14 0b f8 01 f3
       7 -21 -3 5 16 10 -15 -6 19 46 -4 20 11 -8 1 -13
0000a0 01 01 fa f3 7f 1a ff f9 cc 0d 17 e8 11 00 08 d5
       1 1 -6 -13 127 26 -1 -7 -52 13 23 -24 17 0 8 -43
0000b0 f9 f5 ff 15 fe 06 08 01 07 01 16 f6 00 09 00 26
       -7 -11 -1 21 -2 6 8 1 7 1 22 -10 0 9 0 38
0000c0 f7 04 ef fe f6 f7 10 02 f2 02 0f 02 ee 08 04 f2
       -9 4 -17 -2 -10 -9 16 2 -14 2 15 2 -18 8 4 -14
0000d0 df 1e 15 00 0b ea 07 17 f3 f9 04 fd 0a e3 0c e0
       -33 30 21 0 11 -22 7 23 -13 -7 4 -3 10 -29 12 -32
0000e0 fc ff e6 ea da f2 f6 20 09 10 fa 15 1f 2e de f6
       -4 -1 -26 -22 -38 -14 -10 32 9 16 -6 21 31 46 -34 -10
0000f0 ef f8 13 15 ef f8 fe 02 fb 05 26 f2 0d d5 fa eb
       -17 -8 19 21 -17 -8 -2 2 -5 5 38 -14 13 -43 -6 -21

sequential_1/dense_1/MatMul i1 [128, 42]
000000 3d ea 2b ce 36 f3 ff ea 81 7c 32 12 f8 fa 2f 30
       61 -22 43 -50 54 -13 -1 -22 -127 124 50 18 -8 -6 47 48
000010 0e 54 20 0e df d6 dc 96 e3 85 00 15 f4 19 d1 bc
       14 84 32 14 -33 -42 -36 -106 -29 -123 0 21 -12 25 -47 -68
000020 f8 cb 05 0d cc 1a e5 12 28 66 a3 e4 e3 92 b2 f9
       -8 -53 5 13 -52 26 -27 18 40 102 -93 -28 -29 -110 -78 -7
000030 09 f2 fe 81 68 bd 1d b9 d4 4d 01 a0 1f 49 f6 3b
       9 -14 -2 -127 104 -67 29 -71 -44 77 1 -96 31 73 -10 59
000040 66 eb 0e c2 9b 34 33 b2 26 29 4e 4e 46 bc b9 5d
       102 -21 14 -62 -101 52 51 -78 38 41 78 78 70 -68 -71 93
000050 ef b6 be 07 81 60 3c ee 57 b8 a2 31 e1 8e 1a 8d
       -17 -74 -66 7 -127 96 60 -18 87 -72 -94 49 -31 -114 26 -115
000060 d0 cb ff 97 4a f8 13 fd f1 c7 c2 db 75 39 dc ce
       -48 -53 -1 -105 74 -8 19 -3 -15 -57 -62 -37 117 57 -36 -50
000070 ea 5b c3 20 b7 9f fe 1c bd e5 0e 98 4e ae b4 21
       -22 91 -61 32 -73 -97 -2 28 -67 -27 14 -104 78 -82 -76 33
000080 d8 e2 d7 29 f4 08 d0 6d 07 a2 0a dc 83 8c ed f3
       -40 -30 -41 41 -12 8 -48 109 7 -94 10 -36 -125 -116 -19 -13
000090 91 30 0a 33 d6 6d 93 dd d9 72 e5 a2 1c 1f 28 29
       -111 48 10 51 -42 109 -109 -35 -39 114 -27 -94 28 31 40 41
0000a0 95 24 bb 89 20 ff 81 dd d8 2f 14 0c 19 f8 1b d0
       -107 36 -69 -119 32 -1 -127 -35 -40 47 20 12 25 -8 27 -48
0000b0 20 81 ff f0 d8 e9 d4 24 d9 22 19 f4 1b d9 13 03
       32 -127 -1 -16 -40 -23 -44 36 -39 34 25 -12 27 -39 19 3
0000c0 16 ed 14 15 e1 fd 15 1a 2f f1 e3 19 d8 f1 f8 23
       22 -19 20 21 -31 -3 21 26 47 -15 -29 25 -40 -15 -8 35
0000d0 f3 3d fd 6a f3 a3 5b b0 cc 3f fe a0 f4 88 84 45
       -13 61 -3 106 -13 -93 91 -80 -52 63 -2 -96 -12 -120 -124 69
0000e0 d4 db 16 55 bc e8 81 b0 dc 26 bd 35 57 85 b7 e3
       -44 -37 22 85 -68 -24 -127 -80 -36 38 -67 53 87 -123 -73 -29
0000f0 5b c0 4b ad 19 c5 46 98 e5 0b 31 01 62 c0 53 c5
       91 -64 75 -83 25 -59 70 -104 -27 11 49 1 98 -64 83 -59
