app/src/main/Assets/asl_landmark_model0.tflite (tflite, 20992 bytes, 6 tensors)

arith.constant f4 [128]
000000 d2 a3 02 be fc 2e c4 bc fc 1d 24 3e 3f 0c 4e be
       -0.12757805 -0.023948185 0.16027063 -0.20121859
000010 29 e6 11 3d ce 0d 43 3d ff 57 34 bd d9 90 42 bc
       0.03561989 0.047620587 -0.044029232 -0.011875355
000020 cd d5 a9 3c f4 03 8f bd da a1 86 bd 7e e0 1c 3c
       0.020731831 -0.06983176 -0.065738395 0.0095750075
000030 c8 6a 76 bb 6d 13 1e 3e 9b 72 37 bd 00 00 00 00
       -0.0037600268 0.15437098 -0.04478703 0.0
000040 da bf 50 be 00 00 00 00 93 c8 01 3f e4 b2 3b bd
       -0.20385686 0.0 0.50696677 -0.0458249
000050 00 00 00 00 4c 2b ae bc 86 17 b2 bc c5 9e 6f bd
       0.0 -0.02126088 -0.021739732 -0.058501024
000060 14 4e 35 3d 00 00 00 00 65 d8 b0 bd c0 96 8f bc
       0.044263914 0.0 -0.08635024 -0.017527938
000070 51 93 c3 bb a7 66 98 bd ae 19 99 bd 95 10 d8 3e
       -0.005968489 -0.074414544 -0.07475601 0.4220015
000080 00 00 00 00 9a fe 8b 3d 14 e2 d6 bc a2 0e cc 3d
       0.0 0.06835671 -0.02623085 0.099637285
000090 fe bb 9f bd 00 87 14 bd cd 29 6b bd d4 29 35 be
       -0.077995285 -0.03626156 -0.05741291 -0.17691737
0000a0 d5 34 21 be c7 85 13 3f 00 00 00 00 e9 55 96 bc
       -0.1574281 0.57626003 0.0 -0.018351512
0000b0 e7 9d 16 3d 67 12 b9 bb c5 0f ec 3d f3 d8 eb 3d
       0.03677168 -0.0056479457 0.11526445 0.11515989
0000c0 98 53 a5 3e 8a c3 49 be 58 04 fe 3b cf 4e 3b bd
       0.3229034 -0.19703498 0.0077519827 -0.045729455
0000d0 d7 5a 8f bc 70 17 d9 bd 36 af 1d 3d 15 0a 88 bc
       -0.01749937 -0.106001735 0.038497172 -0.01660637
0000e0 01 cc e9 bd 1f 39 09 be 10 5f 53 3d 5f f4 3f bd
       -0.11415864 -0.13400696 0.05160433 -0.04686391
0000f0 3f 0b ca bd a2 59 d6 bd 4e 36 c6 bd 00 00 00 00
       -0.09865426 -0.10466315 -0.096783265 0.0
000100 9b 0c e0 bd c7 9b 01 be 99 92 90 bd 00 00 00 00
       -0.10939904 -0.1265708 -0.07059211 0.0
000110 0c f2 b6 bc 22 95 c4 bb 69 ec 04 3d 65 26 65 3c
       -0.022332214 -0.0059992233 0.03245202 0.013986205
000120 1b e1 24 bd 9b 4e c5 3d fc 33 19 be 09 05 c1 bd
       -0.04025374 0.096341334 -0.14961237 -0.094247885
000130 00 00 00 00 bd b9 64 bd 00 00 00 00 b5 90 2e be
       0.0 -0.055841196 0.0 -0.17047389
000140 a9 d3 16 bd 75 98 81 bc d1 6c 22 bd e3 3f 08 bc
       -0.03682295 -0.015819767 -0.039654557 -0.008316013
000150 95 40 ab 3e 00 00 00 00 28 44 af bc f7 c8 33 bd
       0.3344771 0.0 -0.021394804 -0.043892827
000160 05 15 67 3e c5 a5 3a 3c e3 26 76 be 70 e2 c6 bc
       0.22566612 0.011392062 -0.24038272 -0.024277896
000170 2d 1a 10 3d 2e 1d a0 bc 00 00 00 00 00 00 00 00
       0.035181213 -0.019545164 0.0 0.0
000180 a2 a6 c4 bc 85 da a9 3d d0 ca 26 be 68 fe c5 3d
       -0.024005238 0.082936324 -0.16288304 0.09667665
000190 48 97 ed bb 13 63 c5 bc 00 00 00 00 2e 67 1f bc
       -0.0072507 -0.024095094 0.0 -0.00972919
0001a0 dd f6 ab 3d 55 47 00 3c de 92 11 be 2e f9 3a bc
       0.08396695 0.007829507 -0.14216182 -0.011411948
0001b0 e8 f0 3b bc 00 00 00 00 41 d1 bb 3d 11 b0 aa 3c
       -0.011471011 0.0 0.091707714 0.020835908
0001c0 00 00 00 00 ce 82 ba 3d 14 a0 3d bd 29 cc ed 3d
       0.0 0.0910698 -0.04629524 0.11611206
0001d0 fe 44 40 bc 08 0d 0d be af 28 08 be 04 7d 21 bd
       -0.011735199 -0.13774502 -0.1329677 -0.039425865
0001e0 ed a0 93 bd 49 98 bf 3d cd 94 3b bd 54 61 0b bd
       -0.072084285 0.09355218 -0.045796204 -0.034028366
0001f0 92 ed 33 3e bc dd 27 bc 32 a9 1e be 26 82 26 bd
       0.17571095 -0.010245737 -0.1549423 -0.040651463

arith.constant1 f4 [64]
000000 50 77 f0 bb 39 57 d2 3e a9 f0 cf 39 11 f6 ad 3e
       -0.007338442 0.4108217 0.00039661422 0.33976796
000010 68 e8 91 be 44 4e c3 3d 0a f9 67 3d f0 eb 1e be
       -0.28497624 0.09536412 0.056633987 -0.1551969
000020 fa 63 76 3c a3 cd aa bd 55 4a 07 3e 24 25 fd 3e
       0.015038485 -0.08340003 0.13211949 0.494424
000030 9b bc c6 3e a7 6b ae 3d 27 9b 5d 3e c2 3f e0 3e
       0.3881577 0.08516627 0.21641217 0.43798643
000040 9a 1e c0 bd 38 3d ee bd 03 67 9e 3e 19 3c cf 3d
       -0.09380837 -0.1163277 0.30937967 0.101188846
000050 af 43 ab 3e 52 ce c0 3e 7d af f3 3c 9a 3a 81 3e
       0.33450076 0.3765741 0.029746765 0.25240022
000060 57 b9 10 3f 46 de a6 3e 7b 60 1e 3f e2 1d 0d 3e
       0.56532806 0.32591456 0.6186597 0.1378093
000070 77 f8 8c 3e 56 ae 3a 3e 1d cb c6 3e 11 98 0c 3e
       0.27533314 0.18230566 0.38826838 0.13729884
000080 31 84 76 3e 06 33 8c 3e b5 c2 0d 3f 76 97 bc 3e
       0.24073865 0.27382678 0.55375224 0.36834306
000090 0b 5c e1 3e 96 9e 8e 3e 4c 43 86 3e 68 85 85 3e
       0.44015536 0.27855366 0.26223218 0.26078343
0000a0 79 7f 54 3e 90 f8 d4 3d d4 13 8f bd 1c 71 d7 3d
       0.20751752 0.10398972 -0.06986204 0.10519621
0000b0 41 02 c9 bd 01 e4 bd 3c fe 8a 56 3e 4f ac a3 3e
       -0.09814883 0.02318001 0.20951459 0.319674
0000c0 92 f7 52 3e eb 25 14 3f 4e 54 37 3d 81 db e4 3e
       0.20602253 0.5787036 0.044758134 0.44698718
0000d0 13 19 a3 3e b6 00 19 3e a0 d2 50 3f ad a4 91 3e
       0.31855068 0.14941677 0.8157139 0.2844595
0000e0 3a 58 e3 bc c4 84 82 3d f6 28 c3 3d 48 ca a4 3d
       -0.02775203 0.06372979 0.09529297 0.080463946
0000f0 7c 89 25 bd 62 89 ec 3e 54 dd a3 3d c9 9d 49 3d
       -0.04041432 0.46198565 0.08001199 0.04922274

arith.constant2 f4 [27]
000000 ea bf e4 3e a7 8b 2e 3f b6 2b bb 3d bd d9 55 be
       0.4467767 0.6818184 0.091391966 -0.20883842
000010 96 58 95 3d 7e 0e 37 bf e3 91 b1 bd a3 50 e4 be
       0.07292287 -0.7150649 -0.08670404 -0.4459277
000020 9c 4a ed be 65 e3 2c 3e f6 1b dc 3d b3 ff 7d be
       -0.46345985 0.16883619 0.107475206 -0.24804573
000030 fd 0e 1c bf 59 1c 88 3d 06 2b 4c 3f de 64 95 be
       -0.6096037 0.06646032 0.7975315 -0.29178518
000040 d0 47 98 3e 77 53 66 be 9d 32 34 3f d0 fb 85 be
       0.2974229 -0.22492777 0.7038973 -0.2616868
000050 20 b6 2e 3e 12 05 e7 bd e9 42 55 bf 4f 92 63 3e
       0.17061663 -0.11280264 -0.8330522 0.22223781
000060 b8 2c 93 bd b4 f4 2f be 04 7e a0 3f
       -0.07186264 -0.1718319 1.2538457

tfl.pseudo_qconst i1 [27, 64]
000000 10 09 d5 0e 1c cd 0e c7 07 b4 0d 05 e3 a1 0c 08
       16 9 -43 14 28 -51 14 -57 7 -76 13 5 -29 -95 12 8
000010 05 ff 9a 07 e9 fe 99 01 04 0b 11 09 0d 08 0b 11
       5 -1 -102 7 -23 -2 -103 1 4 11 17 9 13 8 11 17
000020 d8 0a b8 0d fa 0c 0a fa ef cd f4 09 ba 1c 10 0f
       -40 10 -72 13 -6 12 10 -6 -17 -51 -12 9 -70 28 16 15
000030 e9 0a 81 b5 90 d9 03 12 d6 cd e6 0a a5 0e f9 8c
       -23 10 -127 -75 -112 -39 3 18 -42 -51 -26 10 -91 14 -7 -116
000040 c2 0d 19 9f 0d 15 8c a3 ab fa ef 17 15 13 81 0b
       -62 13 25 -97 13 21 -116 -93 -85 -6 -17 23 21 19 -127 11
000050 c6 08 11 f5 cd bc 10 12 cc 85 8c b9 09 06 0c 8f
       -58 8 17 -11 -51 -68 16 18 -52 -123 -116 -71 9 6 12 -113
000060 17 e6 0a a8 0d af a2 0b 18 bb 04 ad 05 07 a3 a3
       23 -26 10 -88 13 -81 -94 11 24 -69 4 -83 5 7 -93 -93
000070 09 97 0c fa eb 11 01 a0 ba 11 fe af a9 ae 8e 06
       9 -105 12 -6 -21 17 1 -96 -70 17 -2 -81 -87 -82 -114 6
000080 e3 b8 f8 e9 16 ba 9d be 88 12 0f 05 f5 b8 bd 05
       -29 -72 -8 -23 22 -70 -99 -66 -120 18 15 5 -11 -72 -67 5
000090 2b fa 90 12 08 d9 c8 16 b0 11 d9 5e 12 0c 90 ff
       43 -6 -112 18 8 -39 -56 22 -80 17 -39 94 18 12 -112 -1
0000a0 cb 11 09 b1 0f 16 cf 1b ce eb 09 ab 89 0e f5 d4
       -53 17 9 -79 15 22 -49 27 -50 -21 9 -85 -119 14 -11 -44
0000b0 26 ef c8 00 14 0b 1a cc 81 26 f3 a9 07 15 15 a0
       38 -17 -56 0 20 11 26 -52 -127 38 -13 -87 7 21 21 -96
0000c0 bd fa dd af 0a c9 1a fb 0b 01 f8 06 0a fc 10 0d
       -67 -6 -35 -81 10 -55 26 -5 11 1 -8 6 10 -4 16 13
0000d0 12 01 ef 07 fd fb 10 10 0d 86 02 c7 0c 07 03 81
       18 1 -17 7 -3 -5 16 16 13 -122 2 -57 12 7 3 -127
0000e0 17 09 e7 a2 02 fa b3 13 e9 f7 07 19 1b 00 ca f2
       23 9 -25 -94 2 -6 -77 19 -23 -9 7 25 27 0 -54 -14
0000f0 12 9b d7 1f 10 f4 0f fb 07 00 d1 e6 04 06 0c ae
       18 -101 -41 31 16 -12 15 -5 7 0 -47 -26 4 6 12 -82

tfl.pseudo_qconst1 i1 [64, 128]
000000 0e 07 f1 fa 17 11 03 f6 17 f0 0c 04 b3 01 01 04
       14 7 -15 -6 23 17 3 -10 23 -16 12 4 -77 1 1 4
000010 13 01 ee 40 05 f6 07 06 f1 00 05 d5 fc 07 3a f6
       19 1 -18 64 5 -10 7 6 -15 0 5 -43 -4 7 58 -10
000020 03 d8 f9 ff 0b f5 01 06 0b ed 07 fb bf ff e7 04
       3 -40 -7 -1 11 -11 1 6 11 -19 7 -5 -65 -1 -25 4
000030 c1 0c 00 0f 05 12 06 03 0d d1 1d 50 d7 d4 02 fd
       -63 12 0 15 5 18 6 3 13 -47 29 80 -41 -44 2 -3
000040 0a 11 12 06 46 08 fc 0c 13 10 0d 3c ff 2e f7 ff
       10 17 18 6 70 8 -4 12 19 16 13 60 -1 46 -9 -1
000050 6e 08 dc 04 81 00 04 19 c4 35 05 07 d9 e3 fd 02
       110 8 -36 4 -127 0 4 25 -60 53 5 7 -39 -29 -3 2
000060 fc 05 0c ed fa 0a 08 f8 f5 f9 f6 09 01 01 10 fb
       -4 5 12 -19 -6 10 8 -8 -11 -7 -10 9 1 1 16 -5
000070 fa 01 02 0e f6 f9 00 e3 0e f8 01 f2 0e fa 08 15
       -6 1 2 14 -10 -7 0 -29 14 -8 1 -14 14 -6 8 21
000080 3a 08 fd ff a6 14 f8 c1 13 eb ee d1 d3 11 dc f2
       58 8 -3 -1 -90 20 -8 -63 19 -21 -18 -47 -45 17 -36 -14
000090 46 07 ff b8 f3 08 00 10 18 09 fe e9 f4 28 2e e4
       70 7 -1 -72 -13 8 0 16 24 9 -2 -23 -12 40 46 -28
0000a0 f0 12 04 2d df 10 06 d9 b7 f9 10 f0 f3 0d ec d8
       -16 18 4 45 -33 16 6 -39 -73 -7 16 -16 -13 13 -20 -40
0000b0 f5 14 01 ee 11 cd 64 0f f4 e1 1e 63 f0 15 06 04
       -11 20 1 -18 17 -51 100 15 -12 -31 30 99 -16 21 6 4
0000c0 ca 00 20 f6 08 02 1e 46 f6 01 fd 3b 0f 09 11 02
       -54 0 32 -10 8 2 30 70 -10 1 -3 59 15 9 17 2
0000d0 af 0e d6 f7 b7 0f 0a fb cb eb a1 fc f8 ea 07 0a
       -81 14 -42 -9 -73 15 10 -5 -53 -21 -95 -4 -8 -22 7 10
0000e0 00 e3 00 2f 00 f8 fd fd dc 03 23 03 f4 f7 1a 2c
       0 -29 0 47 0 -8 -3 -3 -36 3 35 3 -12 -9 26 44
0000f0 fb ce 21 15 04 08 c0 cc 21 12 01 0b 7f e6 f9 1c
       -5 -50 33 21 4 8 -64 -52 33 18 1 11 127 -26 -7 28

sequential_1/dense_1/MatMul i1 [128, 42]
000000 fa 0b 10 09 23 22 01 05 16 09 22 db 22 01 06 47
       -6 11 16 9 35 34 1 5 22 9 34 -37 34 1 6 71
000010 15 7f 07 c7 17 e1 09 00 fe 06 ee d3 f2 e7 f7 ea
       21 127 7 -57 23 -31 9 0 -2 6 -18 -45 -14 -25 -9 -22
000020 0b fa d6 da c7 f1 dc fd ee fb 8f 4c 5d 9e 0b ff
       11 -6 -42 -38 -57 -15 -36 -3 -18 -5 -113 76 93 -98 11 -1
000030 63 20 cb e0 87 63 89 e0 41 3b 9c bf de a8 30 2c
       99 32 -53 -32 -121 99 -119 -32 65 59 -100 -65 -34 -88 48 44
000040 4b 83 d4 2b cb e1 3c 81 ce 51 d0 e1 b5 98 bc a5
       75 -125 -44 43 -53 -31 60 -127 -50 81 -48 -31 -75 -104 -68 -91
000050 fd 9d b4 3e 7a e8 10 a8 f3 c8 f4 e1 3f 93 e6 03
       -3 -99 -76 62 122 -24 16 -88 -13 -56 -12 -31 63 -109 -26 3
000060 cc 1b be 5e c4 63 2c 26 d3 68 c4 dd a7 a0 5b ee
       -52 27 -66 94 -60 99 44 38 -45 104 -60 -35 -89 -96 91 -18
000070 15 59 04 ff 23 ca 7f 4b 13 5c d2 f3 b9 9d aa 37
       21 89 4 -1 35 -54 127 75 19 92 -46 -13 -71 -99 -86 55
000080 d5 37 fa 17 3f 09 7f d9 e6 1f fc 1d 0d e4 fd d6
       -43 55 -6 23 63 9 127 -39 -26 31 -4 29 13 -28 -3 -42
000090 f3 27 13 05 fa 26 0d 14 d8 21 03 0e 17 ef 1f 00
       -13 39 19 5 -6 38 13 20 -40 33 3 14 23 -17 31 0
0000a0 c3 17 ff cd f0 ad 15 ab f3 ee d1 de f0 ec de 10
       -61 23 -1 -51 -16 -83 21 -85 -13 -18 -47 -34 -16 -20 -34 16
0000b0 d5 37 f9 f5 0c e9 4b 0e 7f 04 e1 f1 de ed e4 ff
       -43 55 -7 -11 12 -23 75 14 127 4 -31 -15 -34 -19 -28 -1
0000c0 f5 00 e4 f3 21 f2 0c 1d 13 10 ed f0 10 f5 06 fe
       -11 0 -28 -13 33 -14 12 29 19 16 -19 -16 16 -11 6 -2
0000d0 0b 44 f8 ee 0b 08 02 f9 e4 26 ae 7f 09 e7 fb c5
       11 68 -8 -18 11 8 2 -7 -28 38 -82 127 9 -25 -5 -59
0000e0 55 ff 7f 47 f6 de 14 9b 03 dd de 36 d1 eb 00 b2
       85 -1 127 71 -10 -34 20 -101 3 -35 -34 54 -47 -21 0 -78
0000f0 f7 ad cc cc e5 f3 e9 f6 3d 41 f9 7f f2 40 ef 33
       -9 -83 -52 -52 -27 -13 -23 -10 61 65 -7 127 -14 64 -17 51
