app/src/main/Assets/ASL_Gesture_Landmark_Model.tflite (tflite, 21792 bytes, 6 tensors)

arith.constant f4 [128]
000000 ad d8 39 bd 7a e8 91 3d 35 35 49 3e 00 00 00 00
       -0.045372654 0.071244195 0.19649203 0.0
000010 1c e4 e4 bc 0b 52 41 3e c3 e9 17 bc 07 79 a8 bd
       -0.027940802 0.18878953 -0.009272042 -0.08226209
000020 62 1c a3 bd 00 00 00 00 a1 1a bc 3c 25 b0 db bd
       -0.07964398 0.0 0.022961916 -0.10726956
000030 ab 58 12 bc 70 72 4f bd 20 36 2d bc 00 00 00 00
       -0.008932273 -0.050646245 -0.010571986 0.0
000040 5f 9c 27 be a1 99 c7 3d 66 ea 8b 3c 42 62 e3 bb
       -0.16368245 0.09746099 0.017079543 -0.0069392035
000050 1d ca 85 3d 31 fc ae bb 8d d7 c2 bc 18 14 88 bd
       0.06532691 -0.005340122 -0.023784423 -0.066444576
000060 d5 5d da bc 93 84 d0 bd d5 c8 94 3d e9 b6 1a be
       -0.02665607 -0.101815365 0.07264868 -0.15108837
000070 58 0b bb bb d6 30 30 bd 45 a8 b8 3d 96 a0 75 3d
       -0.0057081394 -0.043015324 0.0901647 0.0599676
000080 00 00 00 00 3f 8f 36 bd 7a 74 9a bd 3f fa 46 bc
       0.0 -0.044570204 -0.075417474 -0.012144624
000090 45 ea 8b bd 73 c0 6e 3d 2e 94 20 be 3b 86 55 3d
       -0.06831793 0.058289003 -0.15681526 0.052129965
0000a0 00 00 00 00 64 2b 0d 3e 00 00 00 00 e7 fe 8a bd
       0.0 0.13786083 0.0 -0.067869
0000b0 00 c3 bd bc 00 00 00 00 1c 7f 2a 3e 51 00 14 bd
       -0.023164272 0.0 0.16650051 -0.036133114
0000c0 86 8f 64 3d fb 5a 38 bc 2e a2 cb bd d3 af df 3c
       0.055800937 -0.01125216 -0.09943043 0.02730552
0000d0 3f a3 41 3d 00 00 00 00 1a aa 18 bd 7b 78 79 3c
       0.047274824 0.0 -0.037271596 0.015226479
0000e0 90 6a 32 3d 07 f3 fd bd a1 48 c8 bd 00 00 00 00
       0.043558657 -0.123998694 -0.09779478 0.0
0000f0 a2 b3 14 be 53 77 75 bd 58 99 76 bd 35 5e 33 bd
       -0.1452165 -0.05992825 -0.060204834 -0.043791015
000100 46 bf 72 bc ad 23 1c 3e 49 f8 8c bc 00 00 00 00
       -0.014816111 0.15247984 -0.017208235 0.0
000110 ee 34 50 bd df 61 31 bd 4b 20 a6 bc 91 67 cb bd
       -0.050831728 -0.043306228 -0.02027907 -0.09931863
000120 a1 a5 d6 3d ef 2b 72 b8 89 89 65 3d 8e de 01 bd
       0.1048081 -5.7738212e-05 0.056039367 -0.031706385
000130 b8 be b4 bd 8c 98 46 bc 4f 25 a5 bc 3c 94 e7 bc
       -0.08825439 -0.012121331 -0.020159392 -0.028268926
000140 c4 1e 0a 3c 00 00 00 00 55 be 9c bd 07 ce 80 3d
       0.008430187 0.0 -0.076534905 0.062892966
000150 b3 74 25 3e f4 cd 7d bc 2b 68 a9 bc 00 00 00 00
       0.16157798 -0.015490998 -0.020679554 0.0
000160 ed 37 23 be 82 6f 9b bd a6 0b b5 3d 7a 40 12 be
       -0.15939303 -0.07589628 0.088401124 -0.14282408
000170 7e fc bf 3d af 8e 75 be 00 00 00 00 64 0d 87 bd
       0.09374331 -0.2398021 0.0 -0.06594351
000180 49 98 65 3d 22 ce 30 bc 1c a8 f2 bd 23 ff 20 3d
       0.056053434 -0.010791333 -0.118484706 0.039305817
000190 68 26 81 3d dd dc 81 3d de 43 f1 3d 65 51 ce 3d
       0.063061535 0.063409545 0.11780523 0.100741185
0001a0 81 0b 8c bc b5 1b 71 bc f0 09 dc 3c 1f c5 08 3e
       -0.01709533 -0.0147160785 0.026860207 0.13356446
0001b0 28 3c 2a be 2f 2b 88 3c c2 0b ce bc 40 d9 fc 3c
       -0.1662451 0.016622154 -0.025152091 0.030865312
0001c0 6c df ea 3d 23 13 69 3d 53 3b b7 bd 1d 4a 28 3e
       0.114683956 0.056903016 -0.08946862 0.16434522
0001d0 6c a5 dd bd 66 25 0a bc ee 5f 6c bc 00 00 00 00
       -0.10822567 -0.008431768 -0.014427168 0.0
0001e0 f1 4d 3b 3d ca fd 7c 3e dc 76 cc 3b 00 00 00 00
       0.045728628 0.24706188 0.006239755 0.0
0001f0 4b f1 be bc e8 97 47 3d bd d5 00 bc 00 00 00 00
       -0.023308417 0.048728853 -0.007863459 0.0

arith.constant1 f4 [64]
000000 b9 cc a7 3d 48 c6 44 3e 69 89 9f 3e 76 46 db 3d
       0.081933446 0.19216263 0.31159523 0.10706799
000010 4e 4b c3 3d 92 c8 94 3e e9 9f 80 3e 10 8c a0 3d
       0.095358476 0.29059273 0.25122002 0.07839215
000020 b3 f3 2c 3e d0 3e a8 bd b4 5a a8 3e de 51 90 3c
       0.16889839 -0.082151055 0.328817 0.017617162
000030 8e 1c d2 bc 9b c6 1b 3d f8 fb e8 bd 97 c4 cf bd
       -0.025648382 0.0380312 -0.11376184 -0.101449184
000040 41 4c f2 bc 67 2f 8e 3e 9c aa 57 bd b9 17 93 3e
       -0.029577376 0.2777054 -0.05265294 0.28729036
000050 6a 85 8d 3e 2c b5 1d bd 0c 71 a5 3e 92 94 19 3e
       0.2764085 -0.038502857 0.3231281 0.14998081
000060 81 7c b0 3e 60 44 23 3d 03 ff 01 3d 1e aa af 3d
       0.3446999 0.03986013 0.03173734 0.08577369
000070 4f 44 d2 3c 88 a8 80 3e 35 3b 71 3d bc ec b7 bb
       0.025667338 0.2512858 0.058894355 -0.0056129377
000080 3e 0f 1b 3e 9f 62 8a bd da 58 cd 3e 26 ae 4f 3d
       0.15142533 -0.06757092 0.4010685 0.05070319
000090 09 3b 9c 3e 95 8d da 3e e1 9f fa 3d c4 31 b4 3e
       0.3051379 0.42686144 0.12237526 0.35194218
0000a0 c8 b5 14 3e cc db b8 3e 74 80 68 3e 7a c8 b9 3e
       0.14522469 0.36105192 0.22705251 0.36285764
0000b0 a5 64 5c 3e df 2b b5 3d 72 52 23 3d 2d 93 58 3d
       0.21522768 0.08846258 0.039873548 0.052874733
0000c0 26 f8 08 3f 56 34 64 3e d6 47 a6 3e 46 7b 9e bd
       0.53503644 0.2228559 0.3247668 -0.07738356
0000d0 83 0a bd 3e b7 b7 95 bd 8f 5f 6b 3e 50 6e 14 3d
       0.36922082 -0.073104315 0.22985671 0.036238015
0000e0 0b 53 d1 3d a0 a8 0a 3e 13 9e f6 3d 67 9d a6 3e
       0.10220917 0.13540888 0.12041869 0.32541963
0000f0 1d 34 94 3e f1 34 10 3e a4 c8 e5 3d 2e 00 08 3e
       0.2894601 0.14082696 0.1121991 0.13281319

arith.constant2 f4 [37]
000000 50 72 b5 3e 47 22 aa 3e 7f be bf bd b7 c2 29 be
       0.35438776 0.33229277 -0.09362506 -0.16578184
000010 a7 5d 7b 3d 63 71 e2 be 92 85 f1 bd 8e ee 0a bf
       0.06136861 -0.44227132 -0.11793055 -0.54270256
000020 04 ad 80 be 64 a9 99 3e 6d 85 57 bd 08 6a a1 be
       -0.25132 0.30012047 -0.05261748 -0.31526208
000030 b5 3a 05 bf 99 89 12 3e 14 38 e9 3e bc cf 8f be
       -0.52042705 0.14310302 0.45550597 -0.28088176
000040 33 25 7f 3e 90 51 97 bd 96 51 bd 3e 91 54 a9 be
       0.24916534 -0.07388604 0.36976308 -0.33072332
000050 1a f4 c1 3d 3a b7 00 bd 01 d2 49 bf a2 91 0c 3e
       0.09470387 -0.03142474 -0.78836066 0.1372743
000060 0a e8 7c 3e f9 f0 86 be 4a 5c a7 3e a2 20 b1 3d
       0.24697891 -0.26355723 0.32687598 0.08648802
000070 65 be 54 3f 67 7b f7 be c0 ee 94 3d 5e ed 4a 3f
       0.8310302 -0.48336336 0.072721004 0.79268444
000080 56 d6 0c be aa ce 0d 3f ef 73 bf 3e 25 6b e2 3e
       -0.13753638 0.5539347 0.37393138 0.4422237
000090 6a 0f f9 3e
       0.48644572

tfl.pseudo_qconst i1 [37, 64]
000000 0b 0e 11 e4 ef 0f fd 12 d8 04 ee 07 05 ec ff 09
       11 14 17 -28 -17 15 -3 18 -40 4 -18 7 5 -20 -1 9
000010 e2 0a 06 98 fd 18 0e 00 00 e3 d6 83 96 9a f7 18
       -30 10 6 -104 -3 24 14 0 0 -29 -42 -125 -106 -102 -9 24
000020 09 0a ea 81 16 00 ed 09 a6 0a f6 b9 97 10 0d 05
       9 10 -22 -127 22 0 -19 9 -90 10 -10 -71 -105 16 13 5
000030 0b 0f 11 f6 04 f2 b7 e9 02 0a 12 d7 05 10 e5 d2
       11 15 17 -10 4 -14 -73 -23 2 10 18 -41 5 16 -27 -46
000040 cd ef a6 07 10 cc 0a b5 08 e8 12 cc 00 06 01 08
       -51 -17 -90 7 16 -52 10 -75 8 -24 18 -52 0 6 1 8
000050 b6 d4 b0 01 aa 11 f2 07 f1 d5 0e 13 d7 0b 0f cd
       -74 -44 -80 1 -86 17 -14 7 -15 -43 14 19 -41 11 15 -51
000060 fe 00 00 eb b6 09 0f fe 0f ab ac 07 f2 81 d7 04
       -2 0 0 -21 -74 9 15 -2 15 -85 -84 7 -14 -127 -41 4
000070 02 b3 97 05 02 f6 0b 0b 0b 06 ea b7 f6 ad fc 04
       2 -77 -105 5 2 -10 11 11 11 6 -22 -73 -10 -83 -4 4
000080 ba 13 fe 1c 0a f7 06 a7 b0 e8 a8 0e dc 19 f4 0c
       -70 19 -2 28 10 -9 6 -89 -80 -24 -88 14 -36 25 -12 12
000090 a9 da 81 a0 dd dc 11 15 14 94 13 2e e3 0f 1d 09
       -87 -38 -127 -96 -35 -36 17 21 20 -108 19 46 -29 15 29 9
0000a0 17 f9 12 ea c1 8b c1 cb ae ea 8c 16 24 c6 b3 95
       23 -7 18 -22 -63 -117 -63 -53 -82 -22 -116 22 36 -58 -77 -107
0000b0 1d f9 1a f1 13 fe cd 0e 01 11 07 08 11 43 09 0b
       29 -7 26 -15 19 -2 -51 14 1 17 7 8 17 67 9 11
0000c0 cc 15 b5 f9 fe 13 08 13 e8 c1 13 12 f2 16 09 08
       -52 21 -75 -7 -2 19 8 19 -24 -63 19 18 -14 22 9 8
0000d0 24 c5 f8 cf 9f 11 ef 10 11 17 0a 15 b7 e5 15 e4
       36 -59 -8 -49 -97 17 -17 16 17 23 10 21 -73 -27 21 -28
0000e0 16 02 e8 13 0c fc de d5 b9 09 f0 09 18 fa df e5
       22 2 -24 19 12 -4 -34 -43 -71 9 -16 9 24 -6 -33 -27
0000f0 01 0b 81 f0 0d f4 ba 06 fb 0d 08 de 0d c2 fc 12
       1 11 -127 -16 13 -12 -70 6 -5 13 8 -34 13 -62 -4 18

tfl.pseudo_qconst1 i1 [64, 128]
000000 e9 b7 e9 0e 04 ed 05 1e 21 02 49 0d fd 04 fe 0c
       -23 -73 -23 14 4 -19 5 30 33 2 73 13 -3 4 -2 12
000010 fe 14 01 0c 2f 0b 08 e5 0c e2 18 f3 f5 6b f5 c9
       -2 20 1 12 47 11 8 -27 12 -30 24 -13 -11 107 -11 -55
000020 fe 24 4e 04 14 23 fa ae f8 ed f3 f3 26 f4 ee 31
       -2 36 78 4 20 35 -6 -82 -8 -19 -13 -13 38 -12 -18 49
000030 99 f6 19 e8 02 02 fa 19 58 0c 4c 0c 14 81 dc f7
       -103 -10 25 -24 2 2 -6 25 88 12 76 12 20 -127 -36 -9
000040 07 04 05 02 f9 ed de ff c2 05 e5 17 00 f5 c0 53
       7 4 5 2 -7 -19 -34 -1 -62 5 -27 23 0 -11 -64 83
000050 c6 0d f0 0a 22 1b fe fb 25 13 e0 08 f5 f1 0b 3e
       -58 13 -16 10 34 27 -2 -5 37 19 -32 8 -11 -15 11 62
000060 e8 f7 5c 2e 9b 1a 0f 09 f9 01 c8 f1 23 ed 63 20
       -24 -9 92 46 -101 26 15 9 -7 1 -56 -15 35 -19 99 32
000070 09 e7 14 b6 fa 30 08 f7 19 0d 0a 02 0d fa 27 f4
       9 -25 20 -74 -6 48 8 -9 25 13 10 2 13 -6 39 -12
000080 70 3c a8 f2 11 00 02 06 09 fc d7 00 f2 02 0a 09
       112 60 -88 -14 17 0 2 6 9 -4 -41 0 -14 2 10 9
000090 fb ae fb f0 da 02 0b 02 fa 4c 10 1b fd e0 fe 56
       -5 -82 -5 -16 -38 2 11 2 -6 76 16 27 -3 -32 -2 86
0000a0 02 e8 e6 0b 14 d0 fe 58 f2 de f4 19 ea f4 d6 d9
       2 -24 -26 11 20 -48 -2 88 -14 -34 -12 25 -22 -12 -42 -39
0000b0 49 f9 03 14 f3 0d 07 06 e1 07 cb 0c fc d6 19 0a
       73 -7 3 20 -13 13 7 6 -31 7 -53 12 -4 -42 25 10
0000c0 0e eb 0f 0f 06 39 23 0b 04 0b 45 f9 11 04 20 ba
       14 -21 15 15 6 57 35 11 4 11 69 -7 17 4 32 -70
0000d0 1a 0e 05 f4 1a 0c 05 0e 1f d6 c9 03 13 ff 0d a5
       26 14 5 -12 26 12 5 14 31 -42 -55 3 19 -1 13 -91
0000e0 09 ff c2 d1 7f a6 c7 03 f9 03 13 f5 f3 d2 b7 05
       9 -1 -62 -47 127 -90 -57 3 -7 3 19 -11 -13 -46 -73 5
0000f0 0b fb f9 13 1b 17 f1 04 e0 03 45 f5 f2 33 e7 00
       11 -5 -7 19 27 23 -15 4 -32 3 69 -11 -14 51 -25 0

sequential_1/dense_1/MatMul i1 [128, 42]
000000 eb 25 16 26 06 07 30 14 5c dc 0b fd b5 e9 a5 e7
       -21 37 22 38 6 7 48 20 92 -36 11 -3 -75 -23 -91 -25
000010 81 db 0e 13 1f e9 41 ec 57 34 1d 1a f3 ce e3 ff
       -127 -37 14 19 31 -23 65 -20 87 52 29 26 -13 -50 -29 -1
000020 0f 38 dd 03 e1 cf fd 02 0c fe 15 2f 53 1a 46 33
       15 56 -35 3 -31 -49 -3 2 12 -2 21 47 83 26 70 51
000030 eb 1e 81 1e 40 f4 d0 f1 c0 14 9a 44 18 cf 14 a5
       -21 30 -127 30 64 -12 -48 -15 -64 20 -102 68 24 -49 20 -91
000040 1f 0c 28 43 34 c7 0f ba fe e4 d9 3d 2d c5 e2 e5
       31 12 40 67 52 -57 15 -70 -2 -28 -39 61 45 -59 -30 -27
000050 fe fd ef fe f6 00 19 ef f4 f8 5a 29 7f d5 d7 f1
       -2 -3 -17 -2 -10 0 25 -17 -12 -8 90 41 127 -43 -41 -15
000060 d3 39 bc 21 f9 25 c3 f3 ce 2a 13 33 0e e3 dd 05
       -45 57 -68 33 -7 37 -61 -13 -50 42 19 51 14 -29 -35 5
000070 d4 1f 0c d2 04 86 e5 0d f7 41 1e da 40 cf c0 8c
       -44 31 12 -46 4 -122 -27 13 -9 65 30 -38 64 -49 -64 -116
000080 1b 56 82 a9 f2 89 91 81 51 57 cf 90 58 37 f2 cd
       27 86 -126 -87 -14 -119 -111 -127 81 87 -49 -112 88 55 -14 -51
000090 ec 02 5a e2 48 0a 89 c7 6e 56 89 7c 63 69 2b a6
       -20 2 90 -30 72 10 -119 -57 110 86 -119 124 99 105 43 -90
0000a0 ad 5e b0 8c cb a7 da a9 ac 18 f8 e9 35 0e 5a 27
       -83 94 -80 -116 -53 -89 -38 -87 -84 24 -8 -23 53 14 90 39
0000b0 77 07 d5 e3 b8 dd e0 af cc 8a cd 1c fd 28 dd e5
       119 7 -43 -29 -72 -35 -32 -81 -52 -118 -51 28 -3 40 -35 -27
0000c0 04 ec e9 12 fc 0b 16 34 28 7f da d7 d8 c7 42 ed
       4 -20 -23 18 -4 11 22 52 40 127 -38 -41 -40 -57 66 -19
0000d0 44 4e 8e 14 b0 f9 c4 ff c4 c7 ec f5 0c a4 27 18
       68 78 -114 20 -80 -7 -60 -1 -60 -57 -20 -11 12 -92 39 24
0000e0 37 48 7f 43 ed c4 00 18 f0 37 ec 3e cf b1 34 02
       55 72 127 67 -19 -60 0 24 -16 55 -20 62 -49 -79 52 2
0000f0 0b 21 24 52 f0 be 3e 15 f5 07 e8 c7 83 b3 69 40
       11 33 36 82 -16 -66 62 21 -11 7 -24 -57 -125 -77 105 64
